…
_cross_attention', 'num_attention_heads', 'resnet_skip_time_act', 'time_embedding_dim', 'cross_attention_norm', 'transformer_layers_per_block', 'only_cross_attention', 'conv_in_kernel', 'dropout', 'reverse_transformer_layers_per_block', 'mid_block_only_cross_attention', 'addition_time_embed_dim', 'resnet_time_scale_shift', 'num_class_embeds'} was not found in config. Values will be initialized to default values.\n"]},{"output_type":"execute_result","data":{"text/plain":["CLIPTextModel(\n","  (text_model): CLIPTextTransformer(\n","    (embeddings): CLIPTextEmbeddings(\n","      (token_embedding): Embedding(49408, 768)\n","      (position_embedding): Embedding(77, 768)\n","    )\n","    (encoder): CLIPEncoder(\n","      (layers): ModuleList(\n","        (0-11): 12 x CLIPEncoderLayer(\n","          (self_attn): CLIPAttention(\n","            (k_proj): Linear(in_features=768, out_features=768, bias=True)\n","            (v_proj): Linear(in_features=768, out_features=768, bias=True)\n","            (q_proj): Linear(in_features=768, out_features=768, bias=True)\n","            (out_proj): Linear(in_features=768, out_features=768, bias=True)\n","          )\n","          (layer_norm1): LayerNorm((768,), eps=1e-05, elementwise_affine=True)\n","          (mlp): CLIPMLP(\n","            (activation_fn): QuickGELUActivation()\n","            (fc1): Linear(in_features=768, out_features=3072, bias=True)\n","            (fc2): Linear(in_features=3072, out_features=768, bias=True)\n","          )\n","          (layer_norm2): LayerNorm((768,), eps=1e-05, elementwise_affine=True)\n","        )\n","      )\n","    )\n","    (final_layer_norm): LayerNorm((768,), eps=1e-05, elementwise_affine=True)\n","  )\n",")"]},"metadata":{},"execution_count":13}]},{"cell_type":"code","source":["# For mixed precision training we cast all non-trainable weigths (vae, non-lora text_encoder and non-lora unet) to half-precision\n","# as these weights are only used for inference, keeping weights in full precision is not required.\n","\n","weight_dtype = torch.float32
…
elerator.device, dtype=weight_dtype)\n","text_encoder.to(accelerator.device, dtype=weight_dtype)"],"metadata":{"colab":{"base_uri":"https://localhost:8080/"},"id":"kPw14csPxSgO","executionInfo":{"status":"ok","timestamp":1701656448376,"user_tz":480,"elapsed":19308,"user":{"displayName":"Arnav Gangal","userId":"05111712817530286410"}},"outputId":"e86ecbcd-86e6-4def-b4a3-151df544b630"},"execution_count":null,"outputs":[{"output_type":"execute_result","data":{"text/plain":["CLIPTextModel(\n","  (text_model): CLIPTextTransformer(\n","    (embeddings): CLIPTextEmbeddings(\n","      (token_embedding): Embedding(49408, 768)\n","      (position_embedding): Embedding(77, 768)\n","    )\n","    (encoder): CLIPEncoder(\n","      (layers): ModuleList(\n","        (0-11): 12 x CLIPEncoderLayer(\n","          (self_attn): CLIPAttention(\n","            (k_proj): Linear(in_features=768, out_features=768, bias=True)\n","            (v_proj): Linear(in_features=768, out_features=768, bias=True)\n","            (q_proj): Linear(in_features=768, out_features=768, bias=True)\n","            (out_proj): Linear(in_features=768, out_features=768, bias=True)\n","          )\n","          (layer_norm1): LayerNorm((768,), eps=1e-05, elementwise_affine=True)\n","          (mlp): CLIPMLP(\n","            (activation_fn): QuickGELUActivation()\n","            (fc1): Linear(in_features=768, out_features=3072, bias=True)\n","            (fc2): Linear(in_features=3072, out_features=768, bias=True)\n","          )\n","          (layer_norm2): LayerNorm((768,), eps=1e-05, elementwise_affine=True)\n","        )\n","      )\n","    )\n","    (final_layer_norm): LayerNorm((768,), eps=1e-05, elementwise_affine=True)\n","  )\n",")"]},"metadata":{},"execution_count":15}]},{"cell_type":"code","source":["# now we will add new LoRA weights to the attention layers\n","# It's important to realize here how many attention weights will be added and of which sizes\n","# The sizes of the attention layers consist only of two different variables:\n","# 1) - the \"hidden_size\", w
…
